chatbot/chatbot-deployment/data.pth (torch, 5719 bytes, 6 tensors)

l1.weight f4 [8, 67]
000000 59 bf a5 3e 17 58 34 3f 37 dd b3 3e 08 52 91 3e
       0.3237255 0.70446914 0.3512971 0.28382897
000010 ae aa 49 be 96 f8 fa 3e 08 0e 82 ba 40 18 4e bc
       -0.19694015 0.4901778 -0.0009922395 -0.012579024
000020 14 bd c4 3e 77 fe 93 3b 0d 2d 0b 3e 9d f6 5a be
       0.38425505 0.0045164186 0.13591404 -0.21383138
000030 dc e7 5c 3e 98 88 8f 3e bf d1 74 bd 93 84 2c 3e
       0.21572822 0.280339 -0.059770342 0.16847448
000040 2b 1e 11 3f 82 ff 22 3d c4 13 1e 3e 29 3d ef 3e
       0.5668666 0.039794452 0.15437227 0.4672635
000050 cb 49 e4 bd 93 94 8e 3d 92 3f de 3e e4 81 c2 3e
       -0.111468874 0.06961932 0.43407875 0.37989724
000060 1b 36 1d 3c 66 74 c2 3c 10 e1 ec 3d f9 e2 3c 3d
       0.009595419 0.023737144 0.11566365 0.046114895
000070 d5 c6 8e be 9c 3d 2c 3f 03 c8 b9 be d6 9a bb bc
       -0.27886072 0.6728151 -0.3628541 -0.02290098
000080 3c 57 94 3d 2e 71 59 be ff 7f f9 ba a9 b9 ca 3c
       0.07243201 -0.21234581 -0.0019035338 0.024746733
000090 15 4e 8f 3d 38 5f a8 ba af 79 7d be a1 f7 7e be
       0.06997315 -0.001284576 -0.2475345 -0.2489915
0000a0 b1 f7 79 3c b0 d2 ac 3e 9d 3a 13 be db 3f d0 bd
       0.015256808 0.33754492 -0.14377828 -0.101684295
0000b0 e3 4a b8 be fe 3d 8b 3e 83 21 82 be 14 2b d2 3e
       -0.35994634 0.27195734 -0.25416192 0.4104849
0000c0 43 94 9e bc 51 09 52 be 41 ac 45 3d 62 aa a4 3e
       -0.019357806 -0.20511366 0.048259977 0.32161242
0000d0 72 e9 56 3f 34 3c c5 bb d2 e5 0c 3e 08 6b 07 bd
       0.8394996 -0.0060191397 0.13759544 -0.033061057
0000e0 e4 c1 96 3e f2 ea 60 3e 76 2b 1b bd c2 a1 8e 3e
       0.29444802 0.21964625 -0.037883244 0.27857786
0000f0 a7 68 1a bd 61 a3 6b 3e 9a 7a af be e6 cc 92 3e
       -0.03769746 0.23011543 -0.34273225 0.2867195
000100 79 74 29 be 76 50 25 be cb 74 b0 3e 36 ed e6 3d
       -0.16548337 -0.16143975 0.34464106 0.11275713
000110 ce 5e 89 3e 83 9f c1 3d ae a7 10 3d d6 02 08 3e
       0.26830143 0.094542526 0.03531616 0.13282332
000120 e3 a7 cd be d9 35 91 be 1a 46 d1 3d 32 f5 62 bd
       -0.4016715 -0.28361395 0.10218449 -0.055409618
000130 98 2c 84 3e 74 c6 23 3e 26 17 79 3f 0e c3 08 be
       0.25815272 0.15993673 0.97300947 -0.13355657
000140 be 3f df be 1e 0f 1c be 1f d3 53 be 25 a1 fb 3d
       -0.4360332 -0.15240142 -0.20686005 0.12286595
000150 20 54 7d bd e2 41 cc be 4f d0 a6 3e b5 78 2d 3f
       -0.061847806 -0.39894015 0.32580802 0.6776231
000160 19 a3 c8 be d3 4e b6 3d f0 83 0b bc 55 16 4a bd
       -0.39186934 0.08901753 -0.008515343 -0.049337704
000170 cc 69 97 bd a6 5f 0f be 64 94 49 be a5 c1 21 3e
       -0.07393226 -0.1400133 -0.19685513 0.15796526
000180 69 6e 0c 3e 43 dd e1 3d 75 c5 b1 be a5 5b 10 3f
       0.13713993 0.110285304 -0.3472096 0.5638984
000190 13 c9 cd bc 57 32 4a bd c4 f7 d7 bc 24 1a 74 3d
       -0.025120294 -0.049364414 -0.026363261 0.059595242
0001a0 6b 0b a7 3e aa 9f b5 3e db e6 99 bc 7b 9b 38 3f
       0.326259 0.35473377 -0.018786838 0.72112244
0001b0 18 b3 0d 3e 94 83 ac 3e ac 4b 6e 3d 38 9f 2b 3e
       0.1383785 0.33694136 0.058177635 0.16759956
0001c0 a5 0a 62 be 27 03 67 3e c7 7c a9 be cc 9a f1 bb
       -0.22074373 0.22559796 -0.3310301 -0.0073731896
0001d0 40 f8 e3 be 18 5c 99 bd 76 3c ea bd b9 a7 18 3e
       -0.44525337 -0.074882686 -0.11437313 0.14907731
0001e0 46 9e d5 bc e4 b1 41 3b 00 d4 e4 3c 15 9b 96 bd
       -0.026076447 0.0029555494 0.02793312 -0.07353798
0001f0 32 6c fd 3d 69 c0 fd bd c3 2c 26 3e b1 fe 8e be
       0.12374152 -0.12390215 0.16228013 -0.2792869
000200 1d eb ad bb c3 57 28 bf 62 22 83 bd 43 b7 53 3e
       -0.0053075687 -0.65758914 -0.064030424 0.20675378
000210 6a 9a 76 3f af 1d 31 3e ce 36 a7 3e 2c f4 76 3e
       0.9632937 0.1729648 0.32659 0.24116582
000220 65 7a 80 3e 22 72 a3 3e e4 f5 19 be 7f 27 2b 3f
       0.2509338 0.31923014 -0.15035206 0.6685714
000230 7c 0d 7a bd 68 1a a8 bd 6b fc ac 3e 4b 8d 0f 3d
       -0.061048016 -0.082081616 0.3378633 0.035046857
000240 74 1f 60 3e ee c2 17 3e 55 fc 87 3e 7a 19 54 3c
       0.21886998 0.14820454 0.26559702 0.012945527
000250 d7 12 b5 3e 9b 9c 71 3e 2a c5 58 3e 11 10 05 3e
       0.35365936 0.23594896 0.21168962 0.1299441
000260 a2 b2 84 be 4a 0c 91 3e 02 cd 46 be 2f 51 38 be
       -0.25917536 0.28329688 -0.19414142 -0.17999719
000270 2a a6 ad 3e 4e 72 ca 3e f7 06 b4 3e 58 1a 54 3e
       0.33915836 0.39540333 0.35161564 0.20713174
000280 52 9f 62 3e d1 96 8e 3c 1b 33 f6 3c 66 0d 22 3e
       0.22131088 0.0174059 0.030053666 0.15825424
000290 61 48 09 3d 40 b3 ba be f2 fd 8f 3e 06 f0 81 3e
       0.03351629 -0.36464882 0.28123432 0.25378436
0002a0 ad 4c b7 bd 21 b6 58 3e 81 20 45 3e 89 c8 e7 be
       -0.089501716 0.21163227 0.1925068 -0.45270184
0002b0 ee 85 72 be d3 61 bb 3e 9a f9 8b be 50 1e 72 3e
       -0.23683903 0.3659807 -0.27338868 0.23644376
0002c0 93 a2 00 bf f9 92 64 bd 4c 80 cd be 48 16 03 3f
       -0.5024807 -0.055804227 -0.40136945 0.51205873
0002d0 eb eb f4 be ad 79 e4 3e 0d 9f 84 3e 42 cd 02 bc
       -0.4783624 0.4462408 0.25902596 -0.007983508
0002e0 31 ad 5e 3e 6e a3 3b 3e d5 61 62 3e b7 af 8c 3c
       0.21745755 0.18324062 0.22107632 0.017173631
0002f0 5e d2 76 3e 7f aa 4a 3e 19 ec c4 3e 72 53 5f 3e
       0.24103686 0.19791602 0.38461378 0.21809176
000300 f4 24 b0 3e 45 4c e8 3e 50 22 cf be 10 d2 76 3e
       0.34403193 0.4537069 -0.40455866 0.2410357
000310 d7 8f b7 3e 95 b2 b2 3e c2 e2 1b bd 4b b4 ec 3d
       0.3585193 0.34901872 -0.03805805 0.11557826
000320 3f 9f 37 3e fb 8d a8 3e 66 f8 b6 be ce 06 be 3e
       0.17931841 0.32920823 -0.35736388 0.37114567
000330 c9 0d ff 3e d0 2c 02 be c3 31 6e 3f 21 5c 59 3c
       0.49815205 -0.12712407 0.9304468 0.013266594
000340 71 b7 7a 3d a8 ac 3e 3e c1 fb 24 3e 89 1e b5 3e
       0.0612101 0.1862055 0.16111661 0.3537486
000350 41 59 0f be d1 1e b2 3e 82 c6 40 bd 76 79 85 3e
       -0.13998891 0.34789136 -0.04706431 0.2606923
000360 6f 9c 7f 3e e8 a4 84 be 8b c5 09 3e 42 b0 41 be
       0.24962018 -0.25907063 0.13454263 -0.18914893
000370 8d f1 94 be 7a 80 f4 bd 78 7c d5 bd 9a 43 1f 3f
       -0.2909054 -0.119385675 -0.10424131 0.62212527
000380 24 03 e7 3e eb 21 2f 3e ec 1d 85 3e d0 0e 89 3e
       0.45119584 0.17102782 0.2599939 0.26769114
000390 77 70 95 bd 47 b6 ba bd 95 46 60 be 27 50 71 be
       -0.072968416 -0.09116798 -0.21901925 -0.23565732
0003a0 fe 89 fd bd c3 bc bb 3d 1a f8 fe 3d 3a 43 1e bd
       -0.123798355 0.09166863 0.12449665 -0.03863833
0003b0 ca 21 91 3d 3d 9c 5e 3d db 3d 9f be 68 92 c1 be
       0.07086523 0.05434822 -0.3110188 -0.37807012
0003c0 a7 81 87 3e 5b c1 e8 bc bf a4 ba 3e 35 eb 1c bf
       0.26466104 -0.028412512 0.36453816 -0.612964
0003d0 17 be bd 3c d5 e6 62 be ed 01 a9 3e 74 b9 10 bf
       0.023161931 -0.22158368 0.33009282 -0.5653298
0003e0 61 75 bc 3e ab bd b7 3d 25 07 ef bd e6 0a 9b 3e
       0.36808303 0.08971723 -0.116712846 0.30281752
0003f0 17 8a c3 3e 28 ca d2 be b3 e5 78 bd a8 77 5f 3e
       0.38191292 -0.41169858 -0.060765933 0.21822989

l1.bias f4 [8]
000000 5a 70 60 3f a8 33 2f 3f 7b 61 6a 3f 11 d5 44 3f
       0.87671435 0.68438196 0.91554993 0.76887614
000010 90 ea 63 3f e1 d9 24 3f 54 35 52 3f a1 ea 14 3f
       0.8902979 0.64394957 0.8211262 0.58170515

l2.weight f4 [8, 8]
000000 9c c3 9f 3e d4 6c 45 bf 08 df 13 3f 0d bc 98 3e
       0.31203926 -0.77119184 0.57762194 0.2983097
000010 51 df 45 3f 64 c2 f8 be c8 ff f6 be e8 4d ef 3e
       0.7729388 -0.48585808 -0.4824202 0.46739125
000020 ac af 31 3f ac 75 91 be 19 97 a0 3e 27 23 5c bf
       0.6940868 -0.2841009 0.31365278 -0.8599114
000030 01 18 d6 3e 1d 4a 8e be cc 67 a1 bd 04 be 5a 3f
       0.4181519 -0.2779092 -0.07881126 0.8544619
000040 45 8b 55 bf 1b db d5 3e 33 8f c2 3e f8 8b 3e be
       -0.83415633 0.41768727 0.37999877 -0.18608081
000050 73 86 62 bf 80 ab 43 3f 16 07 42 3f 1d 5e 1f 3f
       -0.88486403 0.76433563 0.7579206 0.6225298
000060 48 f8 b6 bd b8 76 fe bd 88 07 2c bd 49 aa 12 be
       -0.08934075 -0.124249876 -0.04199937 -0.14322771
000070 52 a4 a9 be 98 53 c5 3d 84 3c ab be 5c 01 3b be
       -0.3313318 0.09635085 -0.33444607 -0.18262237
000080 98 1e 12 be 33 1c 96 bf 00 2a 57 3f e5 ef b1 3f
       -0.14269483 -1.1727356 0.8404846 1.3901335
000090 42 c1 98 3e b4 98 d7 bd 6c 91 94 3f a4 03 94 3b
       0.29834944 -0.10527173 1.1606879 0.0045170356
0000a0 07 7b 9a 3f e0 e9 35 3f bc 53 91 3f c3 18 86 3f
       1.2068795 0.7105999 1.1353679 1.0476307
0000b0 c8 e3 84 3f 92 49 9a 3f 38 3e 73 3f 9b 59 00 bf
       1.0382013 1.2053702 0.95016813 -0.5013673
0000c0 f0 67 85 3d e0 a1 1e bc 07 e5 0f be 0d 7b 97 be
       0.06513965 -0.009682149 -0.14052211 -0.29586068
0000d0 fa bb 27 be a8 c3 8e be f1 21 93 3e 7a f9 1e be
       -0.16380301 -0.2788365 0.28736833 -0.15524855
0000e0 78 ce 24 bf bb 69 88 be 06 fa 83 bc 73 66 01 bf
       -0.64377546 -0.26643166 -0.016110431 -0.5054695
0000f0 c0 2b 8e 3d 73 02 d2 3e 83 26 16 3f 82 ec 8b 3f
       0.069419384 0.41017494 0.58652514 1.0931551

l2.bias f4 [8]
000000 35 23 98 be 9a 10 a0 3d 8c 2e 00 be 80 65 63 bc
       -0.2971436 0.078156665 -0.12517756 -0.01387918
000010 8a 11 d2 be 9e a9 fe 3e 24 15 d8 bd e5 ed 71 3e
       -0.41029006 0.49738783 -0.10550907 0.23625906

l3.weight f4 [7, 8]
000000 fe 15 68 3e 64 c4 bb 3e b3 9e 4f 3c d2 e3 50 3e
       0.2266464 0.36673272 0.012672114 0.20399407
000010 7e b3 0c bf b8 1e b5 bf 9a 9b 24 3e fd 56 8e 3e
       -0.54961383 -1.415 0.16074982 0.27800742
000020 d9 6a 69 3d 1d eb 0b 3f 87 fd 51 bf 54 63 f9 3d
       0.056986663 0.5465563 -0.8202748 0.121771485
000030 da b7 95 bf bb 79 f1 3d 5c 8e 95 3d 1c 67 10 bf
       -1.1696732 0.11790796 0.073025435 -0.5640733
000040 93 78 a2 bf e7 9d 98 bf 60 b9 a7 bf 64 5a 43 be
       -1.2693046 -1.1923188 -1.3103447 -0.1907745
000050 c2 76 3e 3f f9 dd a3 3e 79 f1 9e 3e cf 20 9c bf
       0.7439996 0.3200529 0.31043604 -1.2197512
000060 0f db b8 bf 31 e0 e0 3a 27 d4 2e 3f d4 be 98 be
       -1.4441851 0.0017156658 0.6829247 -0.2983309
000070 95 f4 91 bf 7b 48 41 bf 92 aa 0b 3e 29 9c f7 3e
       -1.1402766 -0.7550122 0.13639286 0.48361328
000080 61 25 e6 be f8 a9 83 be fd f3 d8 3e 8a a9 53 3e
       -0.44950393 -0.25715613 0.42373648 0.20670143
000090 d1 27 08 3f b7 da 3e bf fc c0 88 3d 63 6c d6 3c
       0.53185755 -0.7455248 0.06677434 0.02617473
0000a0 58 33 10 3f b6 f8 d0 be fb a8 09 bf 48 e5 61 3d
       0.56328344 -0.4081475 -0.5377347 0.0551503
0000b0 9d cb 02 3f cc cd c5 be 1c 56 df bd 0d f6 18 bf
       0.5109194 -0.38633573 -0.10905096 -0.59750444
0000c0 e0 71 0f c0 6a 5d cf bf 44 8b 29 3e 30 54 b3 bc
       -2.2413254 -1.6200383 0.16557032 -0.02189073
0000d0 49 31 c7 bf 4b 33 3e 3f 9e 5b 4f 3e 8b 85 36 bf
       -1.5561916 0.74297017 0.20249793 -0.7129752

l3.bias f4 [7]
000000 5a 3b 25 be 23 b3 25 be f2 82 d8 be 2b f7 dd be
       -0.16135922 -0.16181616 -0.42287403 -0.43352637
000010 0a 32 4b be e6 72 0c bf 28 c1 95 3f
       -0.19843307 -0.5486282 1.1699572
