chatbot/chatbot-deployment/data.pth (torch, 5418 bytes, 6 tensors)

l1.weight f4 [8, 54]
0	0xbe4cc403	-0.19996648
1	0x3e111b1d	0.14170499
2	0xbe3c8dcd	-0.18413468
3	0xbdf2c9a7	-0.118548684
4	0xbe921ba9	-0.28536728
5	0x3f602831	0.8756133
6	0x3e518323	0.20460181
7	0x3e8457fc	0.25848377
8	0x3e279290	0.16364503
9	0x3df72707	0.12067991
10	0xbe523c3d	-0.20530792
11	0x3eb1cd66	0.3472702
12	0x3e5794b6	0.21052822
13	0x3ec60ad5	0.3868014
14	0xbcc99bd3	-0.024610436
15	0xbe03fc22	-0.1288915
16	0xbe8cee22	-0.2752543
17	0x3f122a44	0.5709574
18	0x3e703f57	0.23461662
19	0xbef54516	-0.4790427
20	0xbe09367b	-0.13399689
21	0xbef54c5a	-0.47909814
22	0xbef54352	-0.47902924
23	0xbe8bb4b4	-0.27286303
24	0x3c941dac	0.018080555
25	0xbe0e8dd8	-0.13921297
26	0x3d2927d5	0.041297752
27	0x3e061488	0.1309377
28	0x3dda6dfb	0.10665508
29	0x3c44c1ce	0.012009097
30	0x3f100b98	0.5626769
31	0x3f0957e4	0.53649735
32	0x3cd4720b	0.025933286
33	0x3d467ef6	0.048460923
34	0x3e6d1776	0.23153481
35	0xbd8d59c0	-0.06901884
36	0x3d489098	0.04896602
37	0x3eb1d1cb	0.34730372
38	0x3e60920d	0.21930714
39	0x3e195531	0.14973904
40	0x3f2ac9ca	0.66714156
41	0x3e96e470	0.2947116
42	0x3e9d8865	0.30768123
43	0x3da79a30	0.08183706
44	0x3ede1e1a	0.4338234
45	0x3e735fc2	0.23766997
46	0xbf0edf87	-0.55809826
47	0xbe14875b	-0.14504759
48	0xbe626286	-0.22107896
49	0x3e5c1c93	0.21495275
50	0x3bb3d4f2	0.0054880315
51	0x3cce2c6e	0.02516767
52	0x3dcdae37	0.100429945
53	0x3da214f0	0.0791415
54	0xbe0761ca	-0.13220897
55	0x3ec89759	0.3917797
56	0xbe73e43a	-0.2381753
57	0x3e8bf107	0.27332327
58	0x3ecc80c3	0.39941987
59	0x3a14e060	0.00056791864
60	0xbc840137	-0.01611386
61	0xbe312d69	-0.17302479
62	0xbe586c73	-0.2113512
63	0xbea34cd8	-0.31894565
64	0x3edc1c34	0.42990267
65	0x3edd016c	0.43165147
66	0x3f089c7e	0.5336379
67	0x3eb4426a	0.3520692
68	0x3f0b949a	0.54523623
69	0x3ec8f2f7	0.39247867
70	0x3ebb104c	0.3653587
71	0x3dd1be07	0.10241323
72	0x3ece56cf	0.40300605
73	0x3eee256d	0.4651293
74	0xbde6fa66	-0.112782285
75	0x3f10474b	0.56358784
76	0x3eee4208	0.46534753
77	0x3f1177d8	0.5682349
78	0x3e92d67a	0.28679258
79	0x3e98a6be	0.29814714
80	0x3f085445	0.53253585
81	0x3eb75577	0.35807392
82	0x3e65b08b	0.22430627
83	0x3ec26040	0.37964058
84	0x3e37453d	0.17897506
85	0x3e97ebd0	0.29672098
86	0xbe47f557	-0.19527183
87	0xbeaba56c	-0.33524644
88	0x3f0d8862	0.5528623
89	0x3ea3f049	0.3201926
90	0x3de15e4c	0.11004314
91	0xbe865375	-0.26235548
92	0x3e2f7055	0.17132695
93	0xbd484e2c	-0.048902676
94	0x3dc06147	0.09393554
95	0x3f1db7b0	0.6160841
96	0x3e9a7850	0.30169916
97	0x3efe38f1	0.49652818
98	0x3e94dfdb	0.29077038
99	0x3f183906	0.5946201
100	0xbef82c63	-0.48471364
101	0xbe69c406	-0.22828683
102	0x3f10fca5	0.56635505
103	0x3f0cb72c	0.54967
104	0x3e8ab54c	0.27091444
105	0x3ef4dc15	0.4782416
106	0x3d8baacb	0.068196855
107	0x3e84964a	0.2589591
108	0xbdd88b99	-0.10573501
109	0x3ea23cb0	0.31686926
110	0x3f1e0397	0.6172423
111	0xbe88618a	-0.26636916
112	0x3eafc03f	0.3432636
113	0x3dd9e510	0.10639393
114	0x3f203934	0.62587285
115	0x3e963743	0.29339036
116	0x3f32c529	0.6983209
117	0x3eb595f1	0.3546596
118	0xbe6d0291	-0.2314551
119	0xbe825466	-0.25455016
120	0x3f43a021	0.7641621
121	0xbc93cda4	-0.018042393
122	0x3ebd8e31	0.37022546
123	0xbe8c96d0	-0.2745881
124	0xbeaba42e	-0.33523697
125	0x3e28a453	0.16468935
126	0x3ef0aefa	0.47008497
127	0xbf137fd0	-0.576169
128	0xbdc96e30	-0.0983547
129	0xbf14288a	-0.5787436
130	0xbf141f32	-0.578601
131	0xbf3cfb37	-0.73820823
132	0x3e3f8c37	0.18705831
133	0xbea7fd85	-0.32810608
134	0x3f2c099c	0.6720216
135	0x3ea6c3ed	0.32571355
136	0x3f102bbf	0.5631675
137	0x3e0a0f49	0.13482393
138	0xbd60c771	-0.054877702
139	0xbdd4ec16	-0.10396592
140	0xbd06deb0	-0.032927215
141	0x3ef955f7	0.48698398
142	0x3f161734	0.58629155
143	0xbeff52b1	-0.49867776
144	0x3eeeb96d	0.46625844
145	0x3f060082	0.52344525
146	0x3ec0b2ac	0.37636316
147	0x3f114825	0.5675071
148	0x3da9e898	0.08296317
149	0x3f14b0bf	0.58082193
150	0x3a6749d3	0.00088229513
151	0x3ec7fef9	0.39061716
152	0x3e87b91f	0.26508424
153	0x3f089104	0.53346276
154	0xbf233de3	-0.63766307
155	0x3c810084	0.015747316
156	0x3ee1ac4b	0.44076762
157	0x3f584043	0.84473056
158	0xbf00717b	-0.5017316
159	0x3eed7525	0.46378437
160	0x3f066f50	0.525136
161	0x3f075a16	0.52871835
162	0xbea00ed1	-0.31261304
163	0x3f2c71d8	0.6736121
164	0xbed85f01	-0.42259982
165	0x3ee85466	0.4537689
166	0x3e4b1229	0.19831146
167	0xbf011d82	-0.5043565
168	0x3ca17195	0.01970748
169	0xbe7d8371	-0.24757172
170	0xbecfd89c	-0.40594947
171	0xbe93db0e	-0.28878063
172	0x3f183bdd	0.59466344
173	0xbe15c6e2	-0.14626649
174	0x3e838077	0.25683948
175	0xbe88afce	-0.26696628
176	0x3f08efae	0.5349072
177	0xbe2d65f2	-0.1693342
178	0x3f0cfcc0	0.55073166
179	0xbf04822e	-0.5176114
180	0x3ea430a4	0.3206836
181	0x3f354987	0.7081532
182	0xbe411878	-0.1885699
183	0x3f2747c7	0.653439
184	0x3f1e12e4	0.61747575
185	0x3ea3eb9c	0.32015693
186	0xbe146589	-0.14491858
187	0x3ece27fa	0.40264875
188	0x3e15b03c	0.1461801
189	0x3f5c20ed	0.8598774
190	0xbd7d9bc8	-0.061916143
191	0x3ef51822	0.47869974
192	0xbe7edf1d	-0.24889798
193	0xbe07a9f9	-0.13248433
194	0xbe861a8d	-0.26192132
195	0xbeddc95a	-0.43317682
196	0x3f45faae	0.7733563
197	0xbda35088	-0.079743445
198	0xbdc14e1c	-0.09438726
199	0xbec87d62	-0.3915816
200	0xbe003ffe	-0.12524411
201	0xbe282974	-0.16422063
202	0xbde2a2d5	-0.11066214
203	0x3eca96fd	0.3956832
204	0xbe11ca05	-0.1423722
205	0x3f02b78f	0.5106134
206	0xbea38cc4	-0.31943333
207	0x3f407108	0.7517247
208	0xbf0a5d0a	-0.54048216
209	0xbd232f39	-0.039839957
210	0x3e9df15f	0.30848214
211	0x3ebfd9be	0.37470812
212	0xbe84428e	-0.25832027
213	0x3e9d150f	0.3068013
214	0xbe0c22e2	-0.13685182
215	0x3d6df3a5	0.058093686
216	0xbe14db01	-0.14536668
217	0x3edb05bc	0.42777812
218	0xbe5f3171	-0.21796204
219	0x3ee218ab	0.44159445
220	0x3e8cdd4b	0.27512583
221	0xbee6088a	-0.4492839
222	0x3cb640a1	0.022247614
223	0xbe4e8243	-0.20166878
224	0xbef4e803	-0.4783326
225	0xbe72284c	-0.23648185
226	0x3e82d3ce	0.2555222
227	0x3d39a818	0.045326322
228	0xbda24118	-0.07922572
229	0x3b699472	0.0035641459
230	0x3ed378fb	0.41303238
231	0xbdac41d1	-0.08410991
232	0x3ea95d6f	0.33079097
233	0xbf0194d6	-0.5061773
234	0xbde99a88	-0.114064276
235	0x3f31240c	0.6919563
236	0xbe166b1f	-0.14689301
237	0x3ef114f3	0.47086295
238	0x3edf3acc	0.43599546
239	0x3f173e6b	0.5907962
240	0xbe3e3f32	-0.18578795
241	0x3efdd965	0.4957992
242	0xbe6354b0	-0.22200274
243	0x3efe9f4b	0.49730906
244	0xbe6ac167	-0.2292534
245	0x3efa9c79	0.48947504
246	0xbeac315e	-0.33631414
247	0x3e43bfaa	0.19116083
248	0xbdee1b59	-0.1162631
249	0xbe8c1305	-0.2735826
250	0x3e06d730	0.13168025
251	0x3da34bfb	0.079734765
252	0xbe30e368	-0.17274249
253	0xbebc204b	-0.36743388
254	0xbdcaeffb	-0.09909054
255	0xbd1731f0	-0.03691286

l1.bias f4 [8]
0	0x3ef53fbb	0.47900185
1	0x3f470152	0.7773639
2	0x3f141bdb	0.57855004
3	0x3f0a7180	0.5407944
4	0x3f01a091	0.5063563
5	0x3f53ae77	0.8268809
6	0x3ea2348b	0.31680712
7	0x3f394b90	0.72380924

l2.weight f4 [8, 8]
0	0x3ea014d3	0.31265888
1	0x3fa7d06a	1.3110478
2	0x3f95ad52	1.1693518
3	0x3fa7c0b2	1.3105681
4	0x3e8cccd1	0.27500013
5	0xbf0a073b	-0.5391728
6	0x3f90c270	1.1309338
7	0xbe0e0a06	-0.13871011
8	0x3e2641d6	0.16236052
9	0xbe15bb6b	-0.14622276
10	0x3df4b4c8	0.11948544
11	0xbe3f7fb4	-0.18701059
12	0x3e11c0a4	0.14233643
13	0xbcb80ec0	-0.02246797
14	0xbe5ea25d	-0.21741624
15	0x3d7d41d0	0.06183034
16	0xbec0c765	-0.37652126
17	0xbefa1c61	-0.48849776
18	0x3f34ac00	0.7057495
19	0xbefbe42f	-0.49197528
20	0xbf2b6495	-0.6695035
21	0x3f8b92ba	1.0904152
22	0x3f18e492	0.5972377
23	0xbf2b5fe7	-0.6694321
24	0xbf8e3293	-1.1109184
25	0x3f69147c	0.9104688
26	0xbf515bd0	-0.8178072
27	0x3f8081ad	1.0039574
28	0x3f8b38e1	1.0876733
29	0x3f86a564	1.0519223
30	0xbf010134	-0.5039246
31	0x3f67526c	0.9036014
32	0x3d76dccd	0.060269166
33	0x3edf9a52	0.43672425
34	0x3f387147	0.7204785
35	0xbe8bda91	-0.2731519
36	0xbf45e1f3	-0.77297896
37	0x3f3693b6	0.7131914
38	0x3dc2ade0	0.0950582
39	0xbf8edf93	-1.116198
40	0xbe641113	-0.22272138
41	0x3e43efe0	0.19134474
42	0x3e5d0f69	0.2158791
43	0xbfa6bb36	-1.3025882
44	0xbdccd7ca	-0.10002096
45	0x3fb6dafb	1.4285578
46	0x3be07afc	0.0068505984
47	0xbf0ca47f	-0.549385
48	0xbf484ce8	-0.7824235
49	0x3f2e874a	0.68175185
50	0xbf43a699	-0.7642608
51	0xbf0f7403	-0.56036395
52	0x3e7cd92d	0.24692221
53	0x3f836b84	1.0267186
54	0xbe5dcdcf	-0.21660541
55	0x3ef45fae	0.47729248
56	0x3f8bc43c	1.0919261
57	0x3f31f82a	0.69519293
58	0x3effc154	0.49952185
59	0xbf990037	-1.195319
60	0xbef1c1fd	-0.47218314
61	0x3db7abd8	0.089683235
62	0xbf77389a	-0.9657074
63	0x3f8105c5	1.0079886

l2.bias f4 [8]
0	0x3ea746b1	0.3267112
1	0xbe9a0dea	-0.3008874
2	0x3f16dc45	0.58929855
3	0x3f2e5a08	0.68106127
4	0x3e3f99fc	0.18711084
5	0x3eb664e8	0.3562386
6	0x3d5b652f	0.053563293
7	0x3dfa4551	0.12220252

l3.weight f4 [7, 8]
0	0xbfbbd699	-1.4674865
1	0x3ea153d1	0.3150926
2	0xbf7a3e1b	-0.97751015
3	0x3e5f081a	0.21780434
4	0xbfd7f347	-1.6871117
5	0x3ec85e54	0.39134467
6	0x3f32504f	0.6965379
7	0x3e3c8e8d	0.18413754
8	0x3f263eb6	0.6493944
9	0xbd3be308	-0.04587081
10	0xbf8ea932	-1.1145384
11	0xbe8383bd	-0.25686446
12	0xbf8eda51	-1.1160375
13	0xbef94d16	-0.48691624
14	0xbfb2e703	-1.3976749
15	0xbfcd8dc3	-1.6058887
16	0xbe8a4a0f	-0.27009627
17	0xbde3a2ae	-0.11115013
18	0xbf547c09	-0.8300176
19	0x3caa8506	0.020815384
20	0xbf373512	-0.71565354
21	0xbf328167	-0.697287
22	0xbf9cd0b4	-1.2251191
23	0x3f7300b6	0.9492296
24	0xbeb3efc9	-0.3514388
25	0x3d93af48	0.072111666
26	0xbf5a021c	-0.8515947
27	0x3f8daaee	1.1067789
28	0xbfa5d6c1	-1.2956163
29	0xbf1be67d	-0.6089857
30	0xbc6a2ef5	-0.014293422
31	0xbfc75192	-1.5571768
32	0x3f01305b	0.5046441
33	0xbe7753b3	-0.24153022
34	0xbe9b4c0b	-0.30331454
35	0xbfaf64b8	-1.3702612
36	0x3f36925f	0.71317095
37	0xbf940813	-1.1564964
38	0xbf836dd1	-1.0267888
39	0xbfc07be8	-1.5037813
40	0xbe2cb341	-0.16865255
41	0xbe631bef	-0.22178625
42	0x3ef66ecd	0.4813141
43	0xbfa360e9	-1.276395
44	0x3f0247c9	0.50890785
45	0x3f163dad	0.5868786
46	0xbf9f8d78	-1.2465048
47	0xbf5acd41	-0.8546944
48	0xbfb6cfdd	-1.4282185
49	0xbd1206a8	-0.03565088
50	0x3f34fb5a	0.7069603
51	0x3e276838	0.1634835
52	0x3da4196a	0.0801266
53	0x3f309b2e	0.68986785
54	0x3ee54955	0.4478251
55	0xbf92b649	-1.1461879

l3.bias f4 [7]
0	0xbf1ffcdc	-0.6249521
1	0xbe17853a	-0.14796916
2	0x3f2a8b3d	0.6661871
3	0xbd840a98	-0.06447333
4	0xbd5123ad	-0.051059414
5	0xbd88a257	-0.06671589
6	0xbb4d6d1f	-0.0031345559
