chatbot/chatbot-deployment/data.pth (torch, 5015 bytes, 6 tensors)

l1.weight f4 [8, 52]
-0.109752156 0.05758114 -0.026558526 0.042992633 0.3063069 0.45043516 0.410287 -0.48139757
0.18265319 0.28378227 0.14218646 -0.13711625 0.3141159 0.4173047 0.2853021 -0.09220122
-0.029870914 0.49446243 -0.48146635 -0.11713841 0.4918315 -0.16781648 0.60920656 0.5639644
0.3954783 0.022782044 -0.053007793 0.34379333 -0.19240865 -0.20795535 0.03306454 0.24828401
0.094796866 -0.1301089 -0.1921186 0.020566443 0.3592763 0.53235877 0.44716832 -0.31339929
-0.10062368 -0.5862827 -0.29703298 -0.00956355 0.21570754 -0.5057117 -0.2039946 0.21018863
-0.13228907 -0.17924678 0.41786236 0.024133597 -0.08675422 -0.15824296 -0.15794444 -0.048740797
-0.34107304 0.498529 0.46679813 -0.51084375 -0.24725462 -0.30362818 -0.5478616 -0.46872723
-0.32528445 0.28727353 0.34933665 -0.4815885 0.49767858 0.33474395 -0.35066363 0.24554843
0.5913143 0.07125741 0.717273 0.5099282 0.10846147 -0.3491321 0.47689444 0.28121623
0.4750515 -0.1519848 -0.10511164 -0.41669032 0.43558347 -0.520897 -0.03868799 -0.5342622
-0.047784004 -0.2247471 -0.15272172 -0.5191066 -0.331989 0.5439723 -0.09063484 -0.078401424
-0.31309375 -0.3741676 0.017856568 0.5992875 0.5778882 0.76705927 -0.06787915 0.0036547473
-0.03342741 0.049303323 -0.09364873 -0.050617553 0.051089615 0.048925668 -0.16588065 -0.03646899
0.22719562 -0.00030225515 -0.08609866 0.04229899 0.095936015 0.05215701 -0.0020638108 0.07602483
0.12089814 0.04343318 -0.07834773 -0.090776905 0.07427745 0.08425863 0.10738217 0.060837068
0.37707916 0.21134302 -0.04348915 0.026227027 0.058059886 0.13631447 -0.049824446 0.016010866
0.01706469 0.017402947 -0.06004902 0.013922736 0.304073 0.6661441 0.35053942 -0.21852638
-0.068992965 -0.352569 -0.06694448 -0.019827137 -0.109222606 -0.035267167 -0.13851131 -0.1118492
-0.0071783066 0.014949799 0.109577894 -0.19397625 -0.05885779 0.5409599 0.5493568 0.124286726
0.44843945 0.37414217 0.49113905 -0.38385102 0.25235403 0.36677867 0.51047844 1.1182547
0.3513403 0.4166664 0.30924314 0.6886925 -0.12071696 0.48360878 -0.3968009 0.08875886
0.582767 0.1063358 0.38479695 0.5871802 0.29050812 0.19333862 0.025916055 0.454416
0.042981602 -0.47303775 0.012387231 0.42923433 0.11434652 1.1719701 0.49163762 0.39697915
0.29902458 0.5386574 0.36626187 -0.41451627 -0.3764048 -0.5249777 -0.291741 0.6699955
0.37314528 -0.5651069 -0.050543144 0.26467392 -0.13656525 -0.17550483 0.35031393 0.37649742
0.101958565 0.5329395 0.5141201 0.017727599 0.31065714 -0.028743073 -0.5828586 0.47684857
0.37036794 0.2736689 -0.11630758 0.6834082 0.24770863 -0.30447227 0.16101092 0.5958806
-0.2504483 -0.19593394 0.788674 -0.02536502 -0.5003535 0.0907248 -0.4432679 -0.47906417
0.4157249 0.4282494 -0.33191526 -0.04430681 -0.24425353 0.44378662 0.22623058 0.36517975
-0.201744 0.7261681 0.73079824 -0.120142326 0.3069193 0.2691781 0.22307524 0.22143272
0.09381074 0.29104838 0.6051934 0.6309614 0.31154108 -0.032849688 -0.0010159041 -0.21870796
00000000: bdc5 e0bd 34da 6b3d 4491 d9bc 0b19 303d
00000010: 42d4 9c3e 709f e63e 2311 d23e be79 f6be
00000020: 7009 3b3e e94b 913e 5499 113e 3468 0cbe
00000030: cdd3 a03e f6a8 d53e 1e13 923e fed3 bcbd
00000040: d9b3 f4bc 2e2a fd3e c282 f6be 43e6 efbd
00000050: 57d1 fb3e 15d8 2bbe f6f4 1b3f f95f 103f
00000060: 227c ca3e 69a1 ba3c b31e 59bd ae05 b03e
00000070: c606 45be 3ff2 54be af6e 073d 2a3e 7e3e
00000080: dc24 c23d 443b 05be bdba 44be f57a a83c
00000090: 10f3 b73e aa48 083f 3ff3 e43e df75 a0be
000000a0: ca13 cebd 9f16 16bf b514 98be 70b0 1cbc
000000b0: 70e2 5c3e 5276 01bf f6e3 50be b03b 573e
000000c0: c976 07be 788c 37be 0ef2 d53e d2b3 c53c
000000d0: 32ac b1bd 710a 22be 30bc 21be 6ea4 47bd
000000e0: 20a1 aebe 313f ff3e 2a00 ef3e a8c6 02bf
000000f0: 5130 7dbe 2775 9bbe a840 0cbf 04fd efbe
00000100: af8b a6be 8415 933e 41dc b23e c592 f6be
00000110: bacf fe3e 8f63 ab3e 2f8a b3be 0c71 7b3e
00000120: 6060 173f 68ef 913d 349f 373f a88a 023f
00000130: 0c21 de3d 71c1 b2be 822b f43e 93fb 8f3e
00000140: f339 f33e e7a1 1bbe c644 d7bd 6f58 d5be
00000150: cc04 df3e 8159 05bf 4c77 1ebd 68c5 08bf
00000160: 29b9 43bd 1b24 66be 1563 1cbe 2ce4 04bf
00000170: 76fa a9be c541 0b3f c29e b9bd ed90 a0bd
00000180: d34d a0be e592 bfbe f047 923c e86a 193f
00000190: 7bf0 133f ff5d 443f 3904 8bbd 7c84 6f3b
000001a0: 2eeb 08bd 48f2 493d e8ca bfbd 5a54 4fbd
000001b0: 5843 513d 4866 483d 9edc 29be 8260 15bd
000001c0: f8a5 683e 0078 9eb9 7f54 b0bd b541 2d3d
000001d0: 1a7a c43d 97a2 553d 0041 07bb e8b2 9b3d
000001e0: 7299 f73d fde6 313d c674 a0bd 3ee9 b9bd
000001f0: c71e 983d ca8f ac3d 2feb db3d 4a30 793d
00000200: 8510 c13e 4e6a 583e ae21 32bd 10da d63c
00000210: 34d0 6d3d 0596 0b3e b814 4cbd 3829 833c
00000220: 40cb 8b3c a090 8e3c f6f5 75bd 301c 643c
00000230: 75af 9b3e 6b88 2a3f e779 b33e 61c5 5fbe
00000240: 2f4c 8dbd ed83 b4be 301a 89bd 856c a2bc
00000250: 1ab0 dfbd 4e74 10bd e9d5 0dbe 3211 e5bd
00000260: 0038 ebbb 00f0 743c 606a e03d b6a1 46be
00000270: de14 71bd 597c 0a3f a6a2 0c3f 0a8a fe3d
00000280: db99 e53e 908f bf3e 9476 fb3e 1f88 c4be
00000290: 8c34 813e 6aca bb3e b7ae 023f f822 8f3f
000002a0: e0e2 b33e 4c55 d53e 1e55 9e3e 274e 303f
000002b0: 743a f7bd 929b f73e 7d29 cbbe 35c7 b53d
000002c0: 3830 153f 95c6 d93d 1b04 c53e 7151 163f
000002d0: 7bbd 943e 8ffa 453e e84d d43c 37a9 e83e
000002e0: 7a0d 303d 0132 f2be d0f3 4a3c 9ac4 db3e
000002f0: 822e ea3d 1e03 963f edb7 fb3e da40 cb3e
00000300: c019 993e 74e5 093f ad86 bb3e 7a3b d4be
00000310: 21b8 c0be f064 06bf 145f 95be d384 2b3f
00000320: e60c bf3e d9aa 10bf 5406 4fbd 5783 873e
00000330: c3d7 0bbe 8ab7 33be 595c b33e 45c4 c03e
00000340: a7cf d03d b96e 083f 609d 033f 7839 913c
00000350: 740e 9f3e 9876 ebbc 3936 15bf 7f25 f43e
00000360: dea0 bd3e 541e 8c3e ab32 eebd d7f3 2e3f
00000370: 55a7 7d3e cae3 9bbe 0ce0 243e a28b 183f
00000380: c23a 80be e8a2 48be 8ae6 493f 4dca cfbc
00000390: 2b17 00bf edcd b93d 03f4 e2be e647 f5be
000003a0: e5d9 d43e 8143 db3e ccf0 a9be 0f7b 35bd
000003b0: 991d 7abe 0038 e33e fda8 673e d7f8 ba3e
000003c0: fb95 4ebe 27e6 393f 9815 3b3f 2e0d f6bd
000003d0: 8724 9d3e b6d1 893e d66d 643e 42bf 623e
000003e0: d81f c03d 4b04 953e f4ed 1a3f b086 213f
000003f0: 5082 9f3e 658d 06bd 1628 85ba fbf4 5fbe

l1.bias f4 [8]
0.48152757 0.6118398 -0.017306099 0.45565626 0.5003811 0.68526804 0.91860414 0.4933681
00000000: c88a f63e 88a1 1c3f 85c5 8dbc c74b e93e
00000010: fa18 003f ba6d 2f3f a429 6b3f be9a fc3e

l2.weight f4 [8, 8]
0.9996123 1.3427685 0.755528 0.7962354 -0.77469194 1.6204262 0.5038379 -0.1127087
0.64560014 0.9758576 0.52552354 0.8626917 -0.20056947 -0.15481088 0.35714743 -0.31578138
1.2854576 -0.12549041 0.22526573 0.94462615 0.8412732 0.23581378 0.7968058 -0.99655545
-0.3071826 -1.098838 0.23342131 0.29425123 1.316215 0.9198328 -0.13765815 0.15634239
-0.11223785 -0.36454752 -0.30739853 0.34528798 0.844541 0.339454 -0.48510748 1.444587
0.45251554 -1.059993 0.40627033 0.59708846 0.21878827 0.47242227 0.29688752 -0.5020771
-0.5481222 1.1886 -0.9270712 -0.41581815 0.04494961 -1.0681936 1.3054013 0.8736441
-0.5227836 -0.7526131 0.58741087 0.10562609 1.2642162 -0.009775023 0.8449752 -0.7936066
00000000: 97e6 7f3f d7df ab3f 486a 413f 15d6 4b3f
00000010: 3652 46bf 206a cf3f 85fb 003f d2d3 e6bd
00000020: 0d46 253f ced1 793f b688 063f 5dd9 5c3f
00000030: 1562 4dbe be86 1ebe 07dc b63e 19ae a1be
00000040: e089 a43f 8f80 00be 0fac 663e 05d3 713f
00000050: ae5d 573f 2b79 713e 77fb 4b3f 421e 7fbf
00000060: 0a47 9dbe b9a6 8cbf ff05 6f3e 19a8 963e
00000070: bc79 a83f 2a7a 6b3f 42f6 0cbe 3818 203e
00000080: f5dc e5bd f9a5 babe 5763 9dbe 96c9 b03e
00000090: d733 583f eacc ad3e 0260 f8be 3ae8 b83f
000000a0: 1eb0 e73e daad 87bf aa02 d03e cada 183f
000000b0: 080a 603e 55e1 f13e a401 983e 2088 00bf
000000c0: bd51 0cbf 0b24 983f 8a54 6dbf 1ee6 d4be
000000d0: 151d 383d 91ba 88bf 6417 a73f 24a7 5f3f
000000e0: 25d5 05bf 41ab 40bf 8f60 163f 7e52 d83d
000000f0: d6d1 a13f 6b27 20bc 4b50 583f cd29 4bbf

l2.bias f4 [8]
0.50015277 0.40340063 0.17222993 0.59854573 -0.15246674 -0.52862924 0.6705447 0.38272402
00000000: 030a 003f 878a ce3e 0b5d 303e 4b3a 193f
00000010: 3e20 1cbe 3f54 07bf d1a8 2b3f 67f4 c33e

l3.weight f4 [7, 8]
-1.0351202 -0.17884915 -0.28792244 0.36530045 0.5879879 -0.44175595 -1.0246886 -0.10296477
-0.53434145 0.007540941 0.09218054 0.5626087 -1.5366637 -0.92306393 0.06798592 1.1183182
0.79616725 0.4157865 0.40373245 -1.0878309 -1.0197241 -0.79532516 -0.44156992 -1.2508669
0.3408542 -0.024738302 0.49512425 0.012459212 -1.1129231 0.7418688 -1.8269598 0.3215597
-0.777663 -0.68073195 -1.0153759 -0.4938387 0.38743952 -0.772594 0.6114029 -0.08223268
0.24317451 0.042319357 -1.1586221 -1.6237615 -0.3837835 -0.5110832 0.6791309 -0.64771533
0.76990116 -0.43537354 -0.9716151 0.75685215 0.036154408 -1.1083405 -1.2494241 -0.8255913
00000000: d27e 84bf 3b24 37be 926a 93be a908 bb3e
00000010: 6086 163f d62d e2be ff28 83bf 31df d2bd
00000020: 9aca 08bf ff19 f73b 27c9 bc3d 2007 103f
00000030: 65b1 c4bf eb4d 6cbf 343c 8b3d 0d25 8f3f
00000040: 9ed1 4b3f f8e1 d43e 05b6 ce3e 0b3e 8bbf
00000050: 5286 82bf 6e9a 4bbf 7415 e2be 681c a0bf
00000060: 7184 ae3e fba7 cabc ed80 fd3e b921 4c3c
00000070: 4474 8ebf 1deb 3d3f d2d9 e9bf 79a3 a43e
00000080: ec14 47bf 7344 2ebf d6f7 81bf 6dd8 fcbe
00000090: 795e c63e b8c8 45bf e784 1c3f 9b69 a8bd
000000a0: bd02 793e 1057 2d3d bb4d 94bf 6bd7 cfbf
000000b0: 457f c4be 59d6 02bf 86db 2d3f acd0 25bf
000000c0: 3e18 453f 48e9 debe c4bb 78bf 10c1 413f
000000d0: a516 143d 1ade 8dbf 21ed 9fbf f459 53bf

l3.bias f4 [7]
-0.096170455 0.3334396 0.17799799 -0.2925117 0.045393307 0.1311897 0.436445
00000000: 04f5 c4bd 98b8 aa3e 1b45 363e 18c4 95be
00000010: 55ee 393d 9856 063e b875 df3e
